…
[32m2024-06-01 14:17:42.504[39m | [1mINFO    [22m | [36mlib.rank_reduction[39m:[36mdo_rank_reduction[39m:[36m83[39m - [1mlayer.31.mlp.up_proj                                        Desired/Total: 57/4096  (1.391602 %)
[32m2024-06-01 14:17:45.357[39m | [1mINFO    [22m | [36mlib.rank_reduction[39m:[36mdo_rank_reduction[39m:[36m83[39m - [1mlayer.31.mlp.down_proj                                      Desired/Total: 1971/4096  (48.120117 %)
[32m2024-06-01 14:17:45.473[39m | [1mINFO    [22m | [36mlib.rank_reduction[39m:[36mdo_rank_reduction[39m:[36m87[39m - [1m*************** Pruning Model Completed ***************
[32m2024-06-01 14:17:45.476[39m | [1mINFO    [22m | [36m__main__[39m:[36mmain[39m:[36m229[39m -
[1mLlamaForCausalLM(
[1m  (model): LlamaModel(
[1m    (embed_tokens): Embedding(32000, 4096, padding_idx=0)
[1m    (layers): ModuleList(
[1m      (0): LlamaDecoderLayer(
[1m        (self_attn): LlamaAttention(
[1m          (q_proj): LowRankLayer(
[1m            (U): Linear(in_features=39, out_features=4096, bias=False)
[1m            (V): Linear(in_features=4096, out_features=39, bias=False)
[1m          )
[1m          (k_proj): LowRankLayer(
[1m            (U): Linear(in_features=61, out_features=4096, bias=False)
[1m            (V): Linear(in_features=4096, out_features=61, bias=False)
[1m          )
[1m          (v_proj): LowRankLayer(
[1m            (U): Linear(in_features=897, out_features=4096, bias=False)
[1m            (V): Linear(in_features=4096, out_features=897, bias=False)
[1m          )
[1m          (o_proj): LowRankLayer(
[1m            (U): Linear(in_features=346, out_features=4096, bias=False)
[1m            (V): Linear(in_features=4096, out_features=346, bias=False)
[1m          )
[1m          (rotary_emb): LlamaRotaryEmbedding()
[1m        )
[1m        (mlp): LlamaMLP(
[1m          (gate_proj): LowRankLayer(
[1m            (U): Linear(in_features=593, out_features=11008, bias=False)
[1m            (V): Linear(in_features=4096, out_features=593, bias=False)
[1m          )
[1m          (up_proj): LowRankLayer(
[1m            (U): Linear(in_features=871, out_features=11008, bias=False)
[1m            (V): Linear(in_features=4096, out_features=871, bias=False)
[1m          )
[1m          (down_proj): LowRankLayer(
[1m            (U): Linear(in_features=1327, out_features=4096, bias=False)
[1m            (V): Linear(in_features=11008, out_features=1327, bias=False)
[1m          )
[1m          (act_fn): SiLUActivation()
[1m        )
[1m        (input_layernorm): LlamaRMSNorm()
[1m        (post_attention_layernorm): LlamaRMSNorm()
[1m      )
[1m      (1): LlamaDecoderLayer(
[1m        (self_attn): LlamaAttention(
[1m          (q_proj): LowRankLayer(
[1m            (U): Linear(in_features=271, out_features=4096, bias=False)
[1m            (V): Linear(in_features=4096, out_features=271, bias=False)
[1m          )
[1m          (k_proj): LowRankLayer(
[1m            (U): Linear(in_features=244, out_features=4096, bias=False)
[1m            (V): Linear(in_features=4096, out_features=244, bias=False)
[1m          )
[1m          (v_proj): LowRankLayer(
[1m            (U): Linear(in_features=1323, out_features=4096, bias=False)
[1m            (V): Linear(in_features=4096, out_features=1323, bias=False)
[1m          )
[1m          (o_proj): LowRankLayer(
[1m            (U): Linear(in_features=869, out_features=4096, bias=False)
[1m            (V): Linear(in_features=4096, out_features=869, bias=False)
[1m          )
[1m          (rotary_emb): LlamaRotaryEmbedding()
[1m        )
[1m        (mlp): LlamaMLP(
[1m          (gate_proj): LowRankLayer(
[1m            (U): Linear(in_features=505, out_features=11008, bias=False)
[1m            (V): Linear(in_features=4096, out_features=505, bias=False)
[1m          )
[1m          (up_proj): Linear(in_features=4096, out_features=11008, bias=False)
[1m          (down_proj): Linear(in_features=11008, out_features=4096, bias=False)
[1m          (act_fn): SiLUActivation()
[1m        )
[1m        (input_layernorm): LlamaRMSNorm()
[1m        (post_attention_layernorm): LlamaRMSNorm()
[1m      )
[1m      (2): LlamaDecoderLayer(
[1m        (self_attn): LlamaAttention(
[1m          (q_proj): LowRankLayer(
[1m            (U): Linear(in_features=405, out_features=4096, bias=False)
[1m            (V): Linear(in_features=4096, out_features=405, bias=False)
[1m          )
[1m          (k_proj): LowRankLayer(
[1m            (U): Linear(in_features=327, out_features=4096, bias=False)
[1m            (V): Linear(in_features=4096, out_features=327, bias=False)
[1m          )
[1m          (v_proj): Linear(in_features=4096, out_features=4096, bias=False)
[1m          (o_proj): LowRankLayer(
[1m            (U): Linear(in_features=1096, out_features=4096, bias=False)
[1m            (V): Linear(in_features=4096, out_features=1096, bias=False)
[1m          )
[1m          (rotary_emb): LlamaRotaryEmbedding()
[1m        )
[1m        (mlp): LlamaMLP(
[1m          (gate_proj): LowRankLayer(
[1m            (U): Linear(in_features=1276, out_features=11008, bias=False)
[1m            (V): Linear(in_features=4096, out_features=1276, bias=False)
[1m          )
[1m          (up_proj): Linear(in_features=4096, out_features=11008, bias=False)
[1m          (down_proj): Linear(in_features=11008, out_features=4096, bias=False)
[1m          (act_fn): SiLUActivation()
[1m        )
[1m        (input_layernorm): LlamaRMSNorm()
[1m        (post_attention_layernorm): LlamaRMSNorm()
[1m      )
[1m      (3): LlamaDecoderLayer(
[1m        (self_attn): LlamaAttention(
[1m          (q_proj): LowRankLayer(
[1m            (U): Linear(in_features=551, out_features=4096, bias=False)
[1m            (V): Linear(in_features=4096, out_features=551, bias=False)
[1m          )
[1m          (k_proj): LowRankLayer(
[1m            (U): Linear(in_features=473, out_features=4096, bias=False)
[1m            (V): Linear(in_features=4096, out_features=473, bias=False)
[1m          )
[1m          (v_proj): Linear(in_features=4096, out_features=4096, bias=False)
[1m          (o_proj): LowRankLayer(
[1m            (U): Linear(in_features=852, out_features=4096, bias=False)
[1m            (V): Linear(in_features=4096, out_features=852, bias=False)
[1m          )
[1m          (rotary_emb): LlamaRotaryEmbedding()
[1m        )
[1m        (mlp): LlamaMLP(
[1m          (gate_proj): LowRankLayer(
[1m            (U): Linear(in_features=1703, out_features=11008, bias=False)
[1m            (V): Linear(in_features=4096, out_features=1703, bias=False)
[1m          )
[1m          (up_proj): Linear(in_features=4096, out_features=11008, bias=False)
[1m          (down_proj): Linear(in_features=11008, out_features=4096, bias=False)
[1m          (act_fn): SiLUActivation()
[1m        )
[1m        (input_layernorm): LlamaRMSNorm()
[1m        (post_attention_layernorm): LlamaRMSNorm()
[1m      )
[1m      (4): LlamaDecoderLayer(
[1m        (self_attn): LlamaAttention(
[1m          (q_proj): LowRankLayer(
[1m            (U): Linear(in_features=542, out_features=4096, bias=False)
[1m            (V): Linear(in_features=4096, out_features=542, bias=False)
[1m          )
[1m          (k_proj): LowRankLayer(
[1m            (U): Linear(in_features=441, out_features=4096, bias=False)
[1m            (V): Linear(in_features=4096, out_features=441, bias=False)
[1m          )
[1m          (v_proj): Linear(in_features=4096, out_features=4096, bias=False)
[1m          (o_proj): LowRankLayer(
[1m            (U): Linear(in_features=1153, out_features=4096, bias=False)
[1m            (V): Linear(in_features=4096, out_features=1153, bias=False)
[1m          )
[1m          (rotary_emb): LlamaRotaryEmbedding()
[1m        )
[1m        (mlp): LlamaMLP(
[1m          (gate_proj): LowRankLayer(
[1m            (U): Linear(in_features=1457, out_features=11008, bias=False)
[1m            (V): Linear(in_features=4096, out_features=1457, bias=False)
[1m          )
[1m          (up_proj): Linear(in_features=4096, out_features=11008, bias=False)
[1m          (down_proj): Linear(in_features=11008, out_features=4096, bias=False)
[1m          (act_fn): SiLUActivation()
[1m        )
[1m        (input_layernorm): LlamaRMSNorm()
[1m        (post_attention_layernorm): LlamaRMSNorm()
[1m      )
[1m      (5): LlamaDecoderLayer(
[1m        (self_attn): LlamaAttention(
[1m          (q_proj): LowRankLayer(
[1m            (U): Linear(in_features=558, out_features=4096, bias=False)
[1m            (V): Linear(in_features=4096, out_features=558, bias=False)
[1m          )
[1m          (k_proj): LowRankLayer(
[1m            (U): Linear(in_features=412, out_features=4096, bias=False)
[1m            (V): Linear(in_features=4096, out_features=412, bias=False)
[1m          )
[1m          (v_proj): Linear(in_features=4096, out_features=4096, bias=False)
[1m          (o_proj): LowRankLayer(
[1m            (U): Linear(in_features=1257, out_features=4096, bias=False)
[1m            (V): Linear(in_features=4096, out_features=1257, bias=False)
[1m          )
[1m          (rotary_emb): LlamaRotaryEmbedding()
[1m        )
[1m        (mlp): LlamaMLP(
[1m          (gate_proj): LowRankLayer(
[1m            (U): Linear(in_features=929, out_features=11008, bias=False)
[1m            (V): Linear(in_features=4096, out_features=929, bias=False)
[1m          )
[1m          (up_proj): Linear(in_features=4096, out_features=11008, bias=False)
[1m          (down_proj): Linear(in_features=11008, out_features=4096, bias=False)
[1m          (act_fn): SiLUActivation()
[1m        )
[1m        (input_layernorm): LlamaRMSNorm()
[1m        (post_attention_layernorm): LlamaRMSNorm()
[1m      )
[1m      (6): LlamaDecoderLayer(
[1m        (self_attn): LlamaAttention(
[1m          (q_proj): LowRankLayer(
[1m            (U): Linear(in_features=582, out_features=4096, bias=False)
[1m            (V): Linear(in_features=4096, out_features=582, bias=False)
[1m          )
[1m          (k_proj): LowRankLayer(
[1m            (U): Linear(in_features=436, out_features=4096, bias=False)
[1m            (V): Linear(in_features=4096, out_features=436, bias=False)
[1m          )
[1m          (v_proj): Linear(in_features=4096, out_features=4096, bias=False)
[1m          (o_proj): LowRankLayer(
[1m            (U): Linear(in_features=1031, out_features=4096, bias=False)
[1m            (V): Linear(in_features=4096, out_features=1031, bias=False)
[1m          )
[1m          (rotary_emb): LlamaRotaryEmbedding()
[1m        )
[1m        (mlp): LlamaMLP(
[1m          (gate_proj): LowRankLayer(
[1m            (U): Linear(in_features=620, out_features=11008, bias=False)
[1m            (V): Linear(in_features=4096, out_features=620, bias=False)
[1m          )
[1m          (up_proj): Linear(in_features=4096, out_features=11008, bias=False)
[1m          (down_proj): Linear(in_features=11008, out_features=4096, bias=False)
[1m          (act_fn): SiLUActivation()
[1m        )
[1m        (input_layernorm): LlamaRMSNorm()
[1m        (post_attention_layernorm): LlamaRMSNorm()
[1m      )
[1m      (7): LlamaDecoderLayer(
[1m        (self_attn): LlamaAttention(
[1m          (q_proj): LowRankLayer(
[1m            (U): Linear(in_features=657, out_features=4096, bias=False)
[1m            (V): Linear(in_features=4096, out_features=657, bias=False)
[1m          )
[1m          (k_proj): LowRankLayer(
[1m            (U): Linear(in_features=492, out_features=4096, bias=False)
[1m            (V): Linear(in_features=4096, out_features=492, bias=False)
[1m          )
[1m          (v_proj): Linear(in_features=4096, out_features=4096, bias=False)
[1m          (o_proj): LowRankLayer(
[1m            (U): Linear(in_features=1188, out_features=4096, bias=False)
[1m            (V): Linear(in_features=4096, out_features=1188, bias=False)
[1m          )
[1m          (rotary_emb): LlamaRotaryEmbedding()
[1m        )
[1m        (mlp): LlamaMLP(
[1m          (gate_proj): LowRankLayer(
[1m            (U): Linear(in_features=605, out_features=11008, bias=False)
[1m            (V): Linear(in_features=4096, out_features=605, bias=False)
[1m          )
[1m          (up_proj): Linear(in_features=4096, out_features=11008, bias=False)
[1m          (down_proj): Linear(in_features=11008, out_features=4096, bias=False)
[1m          (act_fn): SiLUActivation()
[1m        )
[1m        (input_layernorm): LlamaRMSNorm()
[1m        (post_attention_layernorm): LlamaRMSNorm()
[1m      )
[1m      (8): LlamaDecoderLayer(
[1m        (self_attn): LlamaAttention(
[1m          (q_proj): LowRankLayer(
[1m            (U): Linear(in_features=670, out_features=4096, bias=False)
[1m            (V): Linear(in_features=4096, out_features=670, bias=False)
[1m          )
[1m          (k_proj): LowRankLayer(
[1m            (U): Linear(in_features=497, out_features=4096, bias=False)
[1m            (V): Linear(in_features=4096, out_features=497, bias=False)
[1m          )
[1m          (v_proj): Linear(in_features=4096, out_features=4096, bias=False)
[1m          (o_proj): LowRankLayer(
[1m            (U): Linear(in_features=1422, out_features=4096, bias=False)
[1m            (V): Linear(in_features=4096, out_features=1422, bias=False)
[1m          )
[1m          (rotary_emb): LlamaRotaryEmbedding()
[1m        )
[1m        (mlp): LlamaMLP(
[1m          (gate_proj): LowRankLayer(
[1m            (U): Linear(in_features=745, out_features=11008, bias=False)
[1m            (V): Linear(in_features=4096, out_features=745, bias=False)
[1m          )
[1m          (up_proj): Linear(in_features=4096, out_features=11008, bias=False)
[1m          (down_proj): Linear(in_features=11008, out_features=4096, bias=False)
[1m          (act_fn): SiLUActivation()
[1m        )
[1m        (input_layernorm): LlamaRMSNorm()
[1m        (post_attention_layernorm): LlamaRMSNorm()
[1m      )
[1m      (9): LlamaDecoderLayer(
[1m        (self_attn): LlamaAttention(
[1m          (q_proj): LowRankLayer(
[1m            (U): Linear(in_features=674, out_features=4096, bias=False)
[1m            (V): Linear(in_features=4096, out_features=674, bias=False)
[1m          )
[1m          (k_proj): LowRankLayer(
[1m            (U): Linear(in_features=516, out_features=4096, bias=False)
[1m            (V): Linear(in_features=4096, out_features=516, bias=False)
[1m          )
[1m          (v_proj): Linear(in_features=4096, out_features=4096, bias=False)
[1m          (o_proj): LowRankLayer(
[1m            (U): Linear(in_features=1380, out_features=4096, bias=False)
[1m            (V): Linear(in_features=4096, out_features=1380, bias=False)
[1m          )
[1m          (rotary_emb): LlamaRotaryEmbedding()
[1m        )
[1m        (mlp): LlamaMLP(
[1m          (gate_proj): LowRankLayer(
[1m            (U): Linear(in_features=711, out_features=11008, bias=False)
[1m            (V): Linear(in_features=4096, out_features=711, bias=False)
[1m          )
[1m          (up_proj): Linear(in_features=4096, out_features=11008, bias=False)
[1m          (down_proj): Linear(in_features=11008, out_features=4096, bias=False)
[1m          (act_fn): SiLUActivation()
[1m        )
[1m        (input_layernorm): LlamaRMSNorm()
[1m        (post_attention_layernorm): LlamaRMSNorm()
[1m      )
[1m      (10): LlamaDecoderLayer(
[1m        (self_attn): LlamaAttention(
[1m          (q_proj): LowRankLayer(
[1m            (U): Linear(in_features=650, out_features=4096, bias=False)
[1m            (V): Linear(in_features=4096, out_features=650, bias=False)
[1m          )
[1m          (k_proj): LowRankLayer(
[1m            (U): Linear(in_features=491, out_features=4096, bias=False)
[1m            (V): Linear(in_features=4096, out_features=491, bias=False)
[1m          )
[1m          (v_proj): Linear(in_features=4096, out_features=4096, bias=False)
[1m          (o_proj): LowRankLayer(
[1m            (U): Linear(in_features=1632, out_features=4096, bias=False)
[1m            (V): Linear(in_features=4096, out_features=1632, bias=False)
[1m          )
[1m          (rotary_emb): LlamaRotaryEmbedding()
[1m        )
[1m        (mlp): LlamaMLP(
[1m          (gate_proj): LowRankLayer(
[1m            (U): Linear(in_features=699, out_features=11008, bias=False)
[1m            (V): Linear(in_features=4096, out_features=699, bias=False)
[1m          )
[1m          (up_proj): Linear(in_features=4096, out_features=11008, bias=False)
[1m          (down_proj): Linear(in_features=11008, out_features=4096, bias=False)
[1m          (act_fn): SiLUActivation()
[1m        )
[1m        (input_layernorm): LlamaRMSNorm()
[1m        (post_attention_layernorm): LlamaRMSNorm()
[1m      )
[1m      (11): LlamaDecoderLayer(
[1m        (self_attn): LlamaAttention(
[1m          (q_proj): LowRankLayer(
[1m            (U): Linear(in_features=648, out_features=4096, bias=False)
[1m            (V): Linear(in_features=4096, out_features=648, bias=False)
[1m          )
[1m          (k_proj): LowRankLayer(
[1m            (U): Linear(in_features=495, out_features=4096, bias=False)
[1m            (V): Linear(in_features=4096, out_features=495, bias=False)
[1m          )
[1m          (v_proj): Linear(in_features=4096, out_features=4096, bias=False)
[1m          (o_proj): LowRankLayer(
[1m            (U): Linear(in_features=1176, out_features=4096, bias=False)
[1m            (V): Linear(in_features=4096, out_features=1176, bias=False)
[1m          )
[1m          (rotary_emb): LlamaRotaryEmbedding()
[1m        )
[1m        (mlp): LlamaMLP(
[1m          (gate_proj): LowRankLayer(
[1m            (U): Linear(in_features=630, out_features=11008, bias=False)
[1m            (V): Linear(in_features=4096, out_features=630, bias=False)
[1m          )
[1m          (up_proj): Linear(in_features=4096, out_features=11008, bias=False)
[1m          (down_proj): LowRankLayer(
[1m            (U): Linear(in_features=2026, out_features=4096, bias=False)
[1m            (V): Linear(in_features=11008, out_features=2026, bias=False)
[1m          )
[1m          (act_fn): SiLUActivation()
[1m        )
[1m        (input_layernorm): LlamaRMSNorm()
[1m        (post_attention_layernorm): LlamaRMSNorm()
[1m      )
[1m      (12): LlamaDecoderLayer(
[1m        (self_attn): LlamaAttention(
[1m          (q_proj): LowRankLayer(
[1m            (U): Linear(in_features=669, out_features=4096, bias=False)
[1m            (V): Linear(in_features=4096, out_features=669, bias=False)
[1m          )
[1m          (k_proj): LowRankLayer(
[1m            (U): Linear(in_features=509, out_features=4096, bias=False)
[1m            (V): Linear(in_features=4096, out_features=509, bias=False)
[1m          )
[1m          (v_proj): Linear(in_features=4096, out_features=4096, bias=False)
[1m          (o_proj): LowRankLayer(
[1m            (U): Linear(in_features=1487, out_features=4096, bias=False)
[1m            (V): Linear(in_features=4096, out_features=1487, bias=False)
[1m          )
[1m          (rotary_emb): LlamaRotaryEmbedding()
[1m        )
[1m        (mlp): LlamaMLP(
[1m          (gate_proj): LowRankLayer(
[1m            (U): Linear(in_features=726, out_features=11008, bias=False)
[1m            (V): Linear(in_features=4096, out_features=726, bias=False)
[1m          )
[1m          (up_proj): Linear(in_features=4096, out_features=11008, bias=False)
[1m          (down_proj): Linear(in_features=11008, out_features=4096, bias=False)
[1m          (act_fn): SiLUActivation()
[1m        )
[1m        (input_layernorm): LlamaRMSNorm()
[1m        (post_attention_layernorm): LlamaRMSNorm()
[1m      )
[1m      (13): LlamaDecoderLayer(
[1m        (self_attn): LlamaAttention(
[1m          (q_proj): LowRankLayer(
[1m            (U): Linear(in_features=630, out_features=4096, bias=False)
[1m            (V): Linear(in_features=4096, out_features=630, bias=False)
[1m          )
[1m          (k_proj): LowRankLayer(
[1m            (U): Linear(in_features=484, out_features=4096, bias=False)
[1m            (V): Linear(in_features=4096, out_features=484, bias=False)
[1m          )
[1m          (v_proj): Linear(in_features=4096, out_features=4096, bias=False)
[1m          (o_proj): LowRankLayer(
[1m            (U): Linear(in_features=1468, out_features=4096, bias=False)
[1m            (V): Linear(in_features=4096, out_features=1468, bias=False)
[1m          )
[1m          (rotary_emb): LlamaRotaryEmbedding()
[1m        )
[1m        (mlp): LlamaMLP(
[1m          (gate_proj): LowRankLayer(
[1m            (U): Linear(in_features=697, out_features=11008, bias=False)
[1m            (V): Linear(in_features=4096, out_features=697, bias=False)
[1m          )
[1m          (up_proj): Linear(in_features=4096, out_features=11008, bias=False)
[1m          (down_proj): Linear(in_features=11008, out_features=4096, bias=False)
[1m          (act_fn): SiLUActivation()
[1m        )
[1m        (input_layernorm): LlamaRMSNorm()
[1m        (post_attention_layernorm): LlamaRMSNorm()
[1m      )
[1m      (14): LlamaDecoderLayer(
[1m        (self_attn): LlamaAttention(
[1m          (q_proj): LowRankLayer(
[1m            (U): Linear(in_features=621, out_features=4096, bias=False)
[1m            (V): Linear(in_features=4096, out_features=621, bias=False)
[1m          )
[1m          (k_proj): LowRankLayer(
[1m            (U): Linear(in_features=439, out_features=4096, bias=False)
[1m            (V): Linear(in_features=4096, out_features=439, bias=False)
[1m          )
[1m          (v_proj): Linear(in_features=4096, out_features=4096, bias=False)
[1m          (o_proj): LowRankLayer(
[1m            (U): Linear(in_features=1654, out_features=4096, bias=False)
[1m            (V): Linear(in_features=4096, out_features=1654, bias=False)
[1m          )
[1m          (rotary_emb): LlamaRotaryEmbedding()
[1m        )
[1m        (mlp): LlamaMLP(
[1m          (gate_proj): LowRankLayer(
[1m            (U): Linear(in_features=714, out_features=11008, bias=False)
[1m            (V): Linear(in_features=4096, out_features=714, bias=False)
[1m          )
[1m          (up_proj): Linear(in_features=4096, out_features=11008, bias=False)
[1m          (down_proj): Linear(in_features=11008, out_features=4096, bias=False)
[1m          (act_fn): SiLUActivation()
[1m        )
[1m        (input_layernorm): LlamaRMSNorm()
[1m        (post_attention_layernorm): LlamaRMSNorm()
[1m      )
[1m      (15): LlamaDecoderLayer(
[1m        (self_attn): LlamaAttention(
[1m          (q_proj): LowRankLayer(
[1m            (U): Linear(in_features=533, out_features=4096, bias=False)
[1m            (V): Linear(in_features=4096, out_features=533, bias=False)
[1m          )
[1m          (k_proj): LowRankLayer(
[1m            (U): Linear(in_features=406, out_features=4096, bias=False)
[1m            (V): Linear(in_features=4096, out_features=406, bias=False)
[1m          )
[1m          (v_proj): Linear(in_features=4096, out_features=4096, bias=False)
[1m          (o_proj): LowRankLayer(
[1m            (U): Linear(in_features=1762, out_features=4096, bias=False)
[1m            (V): Linear(in_features=4096, out_features=1762, bias=False)
[1m          )
[1m          (rotary_emb): LlamaRotaryEmbedding()
[1m        )
[1m        (mlp): LlamaMLP(
[1m          (gate_proj): LowRankLayer(
[1m            (U): Linear(in_features=746, out_features=11008, bias=False)
[1m            (V): Linear(in_features=4096, out_features=746, bias=False)
[1m          )
[1m          (up_proj): Linear(in_features=4096, out_features=11008, bias=False)
[1m          (down_proj): Linear(in_features=11008, out_features=4096, bias=False)
[1m          (act_fn): SiLUActivation()
[1m        )
[1m        (input_layernorm): LlamaRMSNorm()
[1m        (post_attention_layernorm): LlamaRMSNorm()
[1m      )
[1m      (16): LlamaDecoderLayer(
[1m        (self_attn): LlamaAttention(
[1m          (q_proj): LowRankLayer(
[1m            (U): Linear(in_features=486, out_features=4096, bias=False)
[1m            (V): Linear(in_features=4096, out_features=486, bias=False)
[1m          )
[1m          (k_proj): LowRankLayer(
[1m            (U): Linear(in_features=362, out_features=4096, bias=False)
[1m            (V): Linear(in_features=4096, out_features=362, bias=False)
[1m          )
[1m          (v_proj): Linear(in_features=4096, out_features=4096, bias=False)
[1m          (o_proj): LowRankLayer(
[1m            (U): Linear(in_features=1782, out_features=4096, bias=False)
[1m            (V): Linear(in_features=4096, out_features=1782, bias=False)
[1m          )
[1m          (rotary_emb): LlamaRotaryEmbedding()
[1m        )
[1m        (mlp): LlamaMLP(
[1m          (gate_proj): LowRankLayer(
[1m            (U): Linear(in_features=703, out_features=11008, bias=False)
[1m            (V): Linear(in_features=4096, out_features=703, bias=False)
[1m          )
[1m          (up_proj): Linear(in_features=4096, out_features=11008, bias=False)
[1m          (down_proj): Linear(in_features=11008, out_features=4096, bias=False)
[1m          (act_fn): SiLUActivation()
[1m        )
[1m        (input_layernorm): LlamaRMSNorm()
[1m        (post_attention_layernorm): LlamaRMSNorm()
[1m      )
[1m      (17): LlamaDecoderLayer(
[1m        (self_attn): LlamaAttention(
[1m          (q_proj): LowRankLayer(
[1m            (U): Linear(in_features=501, out_features=4096, bias=False)
[1m            (V): Linear(in_features=4096, out_features=501, bias=False)
[1m          )
[1m          (k_proj): LowRankLayer(
[1m            (U): Linear(in_features=367, out_features=4096, bias=False)
[1m            (V): Linear(in_features=4096, out_features=367, bias=False)
[1m          )
[1m          (v_proj): Linear(in_features=4096, out_features=4096, bias=False)
[1m          (o_proj): LowRankLayer(
[1m            (U): Linear(in_features=1659, out_features=4096, bias=False)
[1m            (V): Linear(in_features=4096, out_features=1659, bias=False)
[1m          )
[1m          (rotary_emb): LlamaRotaryEmbedding()
[1m        )
[1m        (mlp): LlamaMLP(
[1m          (gate_proj): LowRankLayer(
[1m            (U): Linear(in_features=652, out_features=11008, bias=False)
[1m            (V): Linear(in_features=4096, out_features=652, bias=False)
[1m          )
[1m          (up_proj): Linear(in_features=4096, out_features=11008, bias=False)
[1m          (down_proj): Linear(in_features=11008, out_features=4096, bias=False)
[1m          (act_fn): SiLUActivation()
[1m        )
[1m        (input_layernorm): LlamaRMSNorm()
[1m        (post_attention_layernorm): LlamaRMSNorm()
[1m      )
[1m      (18): LlamaDecoderLayer(
[1m        (self_attn): LlamaAttention(
[1m          (q_proj): LowRankLayer(
[1m            (U): Linear(in_features=472, out_features=4096, bias=False)
[1m            (V): Linear(in_features=4096, out_features=472, bias=False)
[1m          )
[1m          (k_proj): LowRankLayer(
[1m            (U): Linear(in_features=370, out_features=4096, bias=False)
[1m            (V): Linear(in_features=4096, out_features=370, bias=False)
[1m          )
[1m          (v_proj): Linear(in_features=4096, out_features=4096, bias=False)
[1m          (o_proj): LowRankLayer(
[1m            (U): Linear(in_features=1784, out_features=4096, bias=False)
[1m            (V): Linear(in_features=4096, out_features=1784, bias=False)
[1m          )
[1m          (rotary_emb): LlamaRotaryEmbedding()
[1m        )
[1m        (mlp): LlamaMLP(
[1m          (gate_proj): LowRankLayer(
[1m            (U): Linear(in_features=792, out_features=11008, bias=False)
[1m            (V): Linear(in_features=4096, out_features=792, bias=False)
[1m          )
[1m          (up_proj): Linear(in_features=4096, out_features=11008, bias=False)
[1m          (down_proj): Linear(in_features=11008, out_features=4096, bias=False)
[1m          (act_fn): SiLUActivation()
[1m        )
[1m        (input_layernorm): LlamaRMSNorm()
[1m        (post_attention_layernorm): LlamaRMSNorm()
[1m      )
[1m      (19): LlamaDecoderLayer(
[1m        (self_attn): LlamaAttention(
[1m          (q_proj): LowRankLayer(
[1m            (U): Linear(in_features=457, out_features=4096, bias=False)
[1m            (V): Linear(in_features=4096, out_features=457, bias=False)
[1m          )
[1m          (k_proj): LowRankLayer(
[1m            (U): Linear(in_features=329, out_features=4096, bias=False)
[1m            (V): Linear(in_features=4096, out_features=329, bias=False)
[1m          )
[1m          (v_proj): Linear(in_features=4096, out_features=4096, bias=False)
[1m          (o_proj): LowRankLayer(
[1m            (U): Linear(in_features=1827, out_features=4096, bias=False)
[1m            (V): Linear(in_features=4096, out_features=1827, bias=False)
[1m          )
[1m          (rotary_emb): LlamaRotaryEmbedding()
[1m        )
[1m        (mlp): LlamaMLP(
[1m          (gate_proj): LowRankLayer(
[1m            (U): Linear(in_features=1000, out_features=11008, bias=False)
[1m            (V): Linear(in_features=4096, out_features=1000, bias=False)
[1m          )
[1m          (up_proj): Linear(in_features=4096, out_features=11008, bias=False)
[1m          (down_proj): Linear(in_features=11008, out_features=4096, bias=False)
[1m          (act_fn): SiLUActivation()
[1m        )
[1m        (input_layernorm): LlamaRMSNorm()
[1m        (post_attention_layernorm): LlamaRMSNorm()
[1m      )
[1m      (20): LlamaDecoderLayer(
[1m        (self_attn): LlamaAttention(
[1m          (q_proj): LowRankLayer(
[1m            (U): Linear(in_features=403, out_features=4096, bias=False)
[1m            (V): Linear(in_features=4096, out_features=403, bias=False)
[1m          )
[1m          (k_proj): LowRankLayer(
[1m            (U): Linear(in_features=332, out_features=4096, bias=False)
[1m            (V): Linear(in_features=4096, out_features=332, bias=False)
[1m          )
[1m          (v_proj): Linear(in_features=4096, out_features=4096, bias=False)
[1m          (o_proj): LowRankLayer(
[1m            (U): Linear(in_features=1480, out_features=4096, bias=False)
[1m            (V): Linear(in_features=4096, out_features=1480, bias=False)
[1m          )
[1m          (rotary_emb): LlamaRotaryEmbedding()
[1m        )
[1m        (mlp): LlamaMLP(
[1m          (gate_proj): LowRankLayer(
[1m            (U): Linear(in_features=1026, out_features=11008, bias=False)
[1m            (V): Linear(in_features=4096, out_features=1026, bias=False)
[1m          )
[1m          (up_proj): Linear(in_features=4096, out_features=11008, bias=False)
[1m          (down_proj): Linear(in_features=11008, out_features=4096, bias=False)
[1m          (act_fn): SiLUActivation()
[1m        )
[1m        (input_layernorm): LlamaRMSNorm()
[1m        (post_attention_layernorm): LlamaRMSNorm()
[1m      )
[1m      (21): LlamaDecoderLayer(
[1m        (self_attn): LlamaAttention(
[1m          (q_proj): LowRankLayer(
[1m            (U): Linear(in_features=437, out_features=4096, bias=False)
[1m            (V): Linear(in_features=4096, out_features=437, bias=False)
[1m          )
[1m          (k_proj): LowRankLayer(
[1m            (U): Linear(in_features=394, out_features=4096, bias=False)
[1m            (V): Linear(in_features=4096, out_features=394, bias=False)
[1m          )
[1m          (v_proj): Linear(in_features=4096, out_features=4096, bias=False)
[1m          (o_proj): LowRankLayer(
[1m            (U): Linear(in_features=1879, out_features=4096, bias=False)
[1m            (V): Linear(in_features=4096, out_features=1879, bias=False)
[1m          )
[1m          (rotary_emb): LlamaRotaryEmbedding()
[1m        )
[1m        (mlp): LlamaMLP(
[1m          (gate_proj): LowRankLayer(
[1m            (U): Linear(in_features=1190, out_features=11008, bias=False)
[1m            (V): Linear(in_features=4096, out_features=1190, bias=False)
[1m          )
[1m          (up_proj): Linear(in_features=4096, out_features=11008, bias=False)
[1m          (down_proj): Linear(in_features=11008, out_features=4096, bias=False)
[1m          (act_fn): SiLUActivation()
[1m        )
[1m        (input_layernorm): LlamaRMSNorm()
[1m        (post_attention_layernorm): LlamaRMSNorm()
[1m      )
[1m      (22): LlamaDecoderLayer(
[1m        (self_attn): LlamaAttention(
[1m          (q_proj): LowRankLayer(
[1m            (U): Linear(in_features=456, out_features=4096, bias=False)
[1m            (V): Linear(in_features=4096, out_features=456, bias=False)
[1m          )
[1m          (k_proj): LowRankLayer(
[1m            (U): Linear(in_features=429, out_features=4096, bias=False)
[1m            (V): Linear(in_features=4096, out_features=429, bias=False)
[1m          )
[1m          (v_proj): Linear(in_features=4096, out_features=4096, bias=False)
[1m          (o_proj): LowRankLayer(
[1m            (U): Linear(in_features=1205, out_features=4096, bias=False)
[1m            (V): Linear(in_features=4096, out_features=1205, bias=False)
[1m          )
[1m          (rotary_emb): LlamaRotaryEmbedding()
[1m        )
[1m        (mlp): LlamaMLP(
[1m          (gate_proj): LowRankLayer(
[1m            (U): Linear(in_features=1239, out_features=11008, bias=False)
[1m            (V): Linear(in_features=4096, out_features=1239, bias=False)
[1m          )
[1m          (up_proj): Linear(in_features=4096, out_features=11008, bias=False)
[1m          (down_proj): Linear(in_features=11008, out_features=4096, bias=False)
[1m          (act_fn): SiLUActivation()
[1m        )
[1m        (input_layernorm): LlamaRMSNorm()
[1m        (post_attention_layernorm): LlamaRMSNorm()
[1m      )
[1m      (23): LlamaDecoderLayer(
[1m        (self_attn): LlamaAttention(
[1m          (q_proj): LowRankLayer(
[1m            (U): Linear(in_features=539, out_features=4096, bias=False)
[1m            (V): Linear(in_features=4096, out_features=539, bias=False)
[1m          )
[1m          (k_proj): LowRankLayer(
[1m            (U): Linear(in_features=499, out_features=4096, bias=False)
[1m            (V): Linear(in_features=4096, out_features=499, bias=False)
[1m          )
[1m          (v_proj): Linear(in_features=4096, out_features=4096, bias=False)
[1m          (o_proj): LowRankLayer(
[1m            (U): Linear(in_features=2005, out_features=4096, bias=False)
[1m            (V): Linear(in_features=4096, out_features=2005, bias=False)
[1m          )
[1m          (rotary_emb): LlamaRotaryEmbedding()
[1m        )
[1m        (mlp): LlamaMLP(
[1m          (gate_proj): LowRankLayer(
[1m            (U): Linear(in_features=1558, out_features=11008, bias=False)
[1m            (V): Linear(in_features=4096, out_features=1558, bias=False)
[1m          )
[1m          (up_proj): Linear(in_features=4096, out_features=11008, bias=False)
[1m          (down_proj): Linear(in_features=11008, out_features=4096, bias=False)
[1m          (act_fn): SiLUActivation()
[1m        )
[1m        (input_layernorm): LlamaRMSNorm()
[1m        (post_attention_layernorm): LlamaRMSNorm()
[1m      )
[1m      (24): LlamaDecoderLayer(
[1m        (self_attn): LlamaAttention(
[1m          (q_proj): LowRankLayer(
[1m            (U): Linear(in_features=465, out_features=4096, bias=False)
[1m            (V): Linear(in_features=4096, out_features=465, bias=False)
[1m          )
[1m          (k_proj): LowRankLayer(
[1m            (U): Linear(in_features=383, out_features=4096, bias=False)
[1m            (V): Linear(in_features=4096, out_features=383, bias=False)
[1m          )
[1m          (v_proj): Linear(in_features=4096, out_features=4096, bias=False)
[1m          (o_proj): LowRankLayer(
[1m            (U): Linear(in_features=1596, out_features=4096, bias=False)
[1m            (V): Linear(in_features=4096, out_features=1596, bias=False)
[1m          )
[1m          (rotary_emb): LlamaRotaryEmbedding()
[1m        )
[1m        (mlp): LlamaMLP(
[1m          (gate_proj): LowRankLayer(
[1m            (U): Linear(in_features=1596, out_features=11008, bias=False)
[1m            (V): Linear(in_features=4096, out_features=1596, bias=False)
[1m          )
[1m          (up_proj): Linear(in_features=4096, out_features=11008, bias=False)
[1m          (down_proj): Linear(in_features=11008, out_features=4096, bias=False)
[1m          (act_fn): SiLUActivation()
[1m        )
[1m        (input_layernorm): LlamaRMSNorm()
[1m        (post_attention_layernorm): LlamaRMSNorm()
[1m      )
[1m      (25): LlamaDecoderLayer(
[1m        (self_attn): LlamaAttention(
[1m          (q_proj): LowRankLayer(
[1m            (U): Linear(in_features=591, out_features=4096, bias=False)
[1m            (V): Linear(in_features=4096, out_features=591, bias=False)
[1m          )
[1m          (k_proj): LowRankLayer(
[1m            (U): Linear(in_features=546, out_features=4096, bias=False)
[1m            (V): Linear(in_features=4096, out_features=546, bias=False)
[1m          )
[1m          (v_proj): Linear(in_features=4096, out_features=4096, bias=False)
[1m          (o_proj): Linear(in_features=4096, out_features=4096, bias=False)
[1m          (rotary_emb): LlamaRotaryEmbedding()
[1m        )
[1m        (mlp): LlamaMLP(
[1m          (gate_proj): LowRankLayer(
[1m            (U): Linear(in_features=1628, out_features=11008, bias=False)
[1m            (V): Linear(in_features=4096, out_features=1628, bias=False)
[1m          )
[1m          (up_proj): Linear(in_features=4096, out_features=11008, bias=False)
[1m          (down_proj): Linear(in_features=11008, out_features=4096, bias=False)
[1m          (act_fn): SiLUActivation()
[1m        )
[1m        (input_layernorm): LlamaRMSNorm()
[1m        (post_attention_layernorm): LlamaRMSNorm()
[1m      )
[1m      (26): LlamaDecoderLayer(
[1m        (self_attn): LlamaAttention(
[1m          (q_proj): LowRankLayer(
[1m            (U): Linear(in_features=391, out_features=4096, bias=False)
[1m            (V): Linear(in_features=4096, out_features=391, bias=False)
[1m          )
[1m          (k_proj): LowRankLayer(
[1m            (U): Linear(in_features=361, out_features=4096, bias=False)
[1m            (V): Linear(in_features=4096, out_features=361, bias=False)
[1m          )
[1m          (v_proj): Linear(in_features=4096, out_features=4096, bias=False)
[1m          (o_proj): LowRankLayer(
[1m            (U): Linear(in_features=1632, out_features=4096, bias=False)
[1m            (V): Linear(in_features=4096, out_features=1632, bias=False)
[1m          )
[1m          (rotary_emb): LlamaRotaryEmbedding()
[1m        )
[1m        (mlp): LlamaMLP(
[1m          (gate_proj): LowRankLayer(
[1m            (U): Linear(in_features=1479, out_features=11008, bias=False)
[1m            (V): Linear(in_features=4096, out_features=1479, bias=False)
[1m          )
[1m          (up_proj): Linear(in_features=4096, out_features=11008, bias=False)
[1m          (down_proj): Linear(in_features=11008, out_features=4096, bias=False)
[1m          (act_fn): SiLUActivation()
[1m        )
[1m        (input_layernorm): LlamaRMSNorm()
[1m        (post_attention_layernorm): LlamaRMSNorm()
[1m      )
[1m      (27): LlamaDecoderLayer(
[1m        (self_attn): LlamaAttention(
[1m          (q_proj): LowRankLayer(
[1m            (U): Linear(in_features=430, out_features=4096, bias=False)
[1m            (V): Linear(in_features=4096, out_features=430, bias=False)
[1m          )
[1m          (k_proj): LowRankLayer(
[1m            (U): Linear(in_features=334, out_features=4096, bias=False)
[1m            (V): Linear(in_features=4096, out_features=334, bias=False)
[1m          )
[1m          (v_proj): Linear(in_features=4096, out_features=4096, bias=False)
[1m          (o_proj): LowRankLayer(
[1m            (U): Linear(in_features=2038, out_features=4096, bias=False)
[1m            (V): Linear(in_features=4096, out_features=2038, bias=False)
[1m          )
[1m          (rotary_emb): LlamaRotaryEmbedding()
[1m        )
[1m        (mlp): LlamaMLP(
[1m          (gate_proj): LowRankLayer(
[1m            (U): Linear(in_features=1453, out_features=11008, bias=False)
[1m            (V): Linear(in_features=4096, out_features=1453, bias=False)
[1m          )
[1m          (up_proj): Linear(in_features=4096, out_features=11008, bias=False)
[1m          (down_proj): Linear(in_features=11008, out_features=4096, bias=False)
[1m          (act_fn): SiLUActivation()
[1m        )
[1m        (input_layernorm): LlamaRMSNorm()
[1m        (post_attention_layernorm): LlamaRMSNorm()
[1m      )
[1m      (28): LlamaDecoderLayer(
[1m        (self_attn): LlamaAttention(
[1m          (q_proj): LowRankLayer(
[1m            (U): Linear(in_features=430, out_features=4096, bias=False)
[1m            (V): Linear(in_features=4096, out_features=430, bias=False)
[1m          )
[1m          (k_proj): LowRankLayer(
[1m            (U): Linear(in_features=359, out_features=4096, bias=False)
[1m            (V): Linear(in_features=4096, out_features=359, bias=False)
[1m          )
[1m          (v_proj): Linear(in_features=4096, out_features=4096, bias=False)
[1m          (o_proj): LowRankLayer(
[1m            (U): Linear(in_features=1926, out_features=4096, bias=False)
[1m            (V): Linear(in_features=4096, out_features=1926, bias=False)
[1m          )
[1m          (rotary_emb): LlamaRotaryEmbedding()
[1m        )
[1m        (mlp): LlamaMLP(
[1m          (gate_proj): LowRankLayer(
[1m            (U): Linear(in_features=1442, out_features=11008, bias=False)
[1m            (V): Linear(in_features=4096, out_features=1442, bias=False)
[1m          )
[1m          (up_proj): Linear(in_features=4096, out_features=11008, bias=False)
[1m          (down_proj): Linear(in_features=11008, out_features=4096, bias=False)
[1m          (act_fn): SiLUActivation()
[1m        )
[1m        (input_layernorm): LlamaRMSNorm()
[1m        (post_attention_layernorm): LlamaRMSNorm()
[1m      )
[1m      (29): LlamaDecoderLayer(
[1m        (self_attn): LlamaAttention(
[1m          (q_proj): LowRankLayer(
[1m            (U): Linear(in_features=310, out_features=4096, bias=False)
[1m            (V): Linear(in_features=4096, out_features=310, bias=False)
[1m          )
[1m          (k_proj): LowRankLayer(
[1m            (U): Linear(in_features=248, out_features=4096, bias=False)
[1m            (V): Linear(in_features=4096, out_features=248, bias=False)
[1m          )
[1m          (v_proj): Linear(in_features=4096, out_features=4096, bias=False)
[1m          (o_proj): LowRankLayer(
[1m            (U): Linear(in_features=1740, out_features=4096, bias=False)
[1m            (V): Linear(in_features=4096, out_features=1740, bias=False)
[1m          )
[1m          (rotary_emb): LlamaRotaryEmbedding()
[1m        )
[1m        (mlp): LlamaMLP(
[1m          (gate_proj): LowRankLayer(
[1m            (U): Linear(in_features=1267, out_features=11008, bias=False)
[1m            (V): Linear(in_features=4096, out_features=1267, bias=False)
[1m          )
[1m          (up_proj): LowRankLayer(
[1m            (U): Linear(in_features=1330, out_features=11008, bias=False)
[1m            (V): Linear(in_features=4096, out_features=1330, bias=False)
[1m          )
[1m          (down_proj): Linear(in_features=11008, out_features=4096, bias=False)
[1m          (act_fn): SiLUActivation()
[1m        )
[1m        (input_layernorm): LlamaRMSNorm()
[1m        (post_attention_layernorm): LlamaRMSNorm()
[1m      )
[1m      (30): LlamaDecoderLayer(
[1m        (self_attn): LlamaAttention(
[1m          (q_proj): LowRankLayer(
[1m            (U): Linear(in_features=337, out_features=4096, bias=False)
[1m            (V): Linear(in_features=4096, out_features=337, bias=False)
[1m          )
[1m          (k_proj): LowRankLayer(
[1m            (U): Linear(in_features=294, out_features=4096, bias=False)
[1m            (V): Linear(in_features=4096, out_features=294, bias=False)
[1m          )
[1m          (v_proj): Linear(in_features=4096, out_features=4096, bias=False)
[1m          (o_proj): LowRankLayer(
[1m            (U): Linear(in_features=1792, out_features=4096, bias=False)
[1m            (V): Linear(in_features=4096, out_features=1792, bias=False)
[1m          )
[1m          (rotary_emb): LlamaRotaryEmbedding()
[1m        )
[1m        (mlp): LlamaMLP(
[1m          (gate_proj): LowRankLayer(
[1m            (U): Linear(in_features=84, out_features=11008, bias=False)
[1m            (V): Linear(in_features=4096, out_features=84, bias=False)
[1m          )
[1m          (up_proj): LowRankLayer(
[1m            (U): Linear(in_features=38, out_features=11008, bias=False)
[1m            (V): Linear(in_features=4096, out_features=38, bias=False)
[1m          )
[1m          (down_proj): Linear(in_features=11008, out_features=4096, bias=False)
[1m          (act_fn): SiLUActivation()
[1m        )
[1m        (input_layernorm): LlamaRMSNorm()
[1m        (post_attention_layernorm): LlamaRMSNorm()
[1m      )
[1m      (31): LlamaDecoderLayer(
[1m        (self_attn): LlamaAttention(
[1m          (q_proj): LowRankLayer(
[1m            (U): Linear(in_features=196, out_features=4096, bias=False)
[1m            (V): Linear(in_features=4096, out_features=196, bias=False)
[1m          )
[1m          (k_proj): LowRankLayer(
[1m            (U): Linear(in_features=165, out_features=4096, bias=False)
[1m            (V): Linear(in_features=4096, out_features=165, bias=False)
[1m          )
[1m          (v_proj): Linear(in_features=4096, out_features=4096, bias=False)
[1m          (o_proj): LowRankLayer(
[1m            (U): Linear(in_features=554, out_features=4096, bias=False)
[1m            (V): Linear(in_features=4096, out_features=554, bias=False)
[1m          )
[1m          (rotary_emb): LlamaRotaryEmbedding()
[1m        )
[1m        (mlp): LlamaMLP(
[1m          (gate_proj): LowRankLayer(
[1m            (U): Linear(in_features=104, out_features=11008, bias=False)
[1m            (V): Linear(in_features=4096, out_features=104, bias=False)
[1m          )
[1m          (up_proj): LowRankLayer(
[1m            (U): Linear(in_features=57, out_features=11008, bias=False)
[1m            (V): Linear(in_features=4096, out_features=57, bias=False)
[1m          )
[1m          (down_proj): LowRankLayer(
[1m            (U): Linear(in_features=1971, out_features=4096, bias=False)
[1m            (V): Linear(in_features=11008, out_features=1971, bias=False)
[1m          )
[1m          (act_fn): SiLUActivation()
[1m        )
[1m        (input_layernorm): LlamaRMSNorm()
[1m        (post_attention_layernorm): LlamaRMSNorm()
[1m      )
[1m    )
[1m    (norm): LlamaRMSNorm()
[1m  )
[1m  (lm_head): Linear(in_features=4096, out_features=32000, bias=False)
[1m)
[32m2024-06-01 14:17:45.478[39m | [1mINFO    [22m | [36m__main__[39m:[36mmain[39m:[36m230[39m - [1m****** Pruning completed with Rank Reduced/Total Rank : 443879/917504 (48.379 %) ******
[32m2024-06-01 14:17:45.483[39m | [1mINFO    [22m | [36m__main__[39m:[36mmain[39m:[36m234[39m - [1mTotal params AFTER Rank Reduction: 4543.67M
…
